notebooks/gcn.pt (torch, 42215 bytes, 8 tensors)

bias f4 [64]
000000 81 46 37 bd f7 61 b2 bd b5 fd 0c be 00 00 00 00
       -0.044744972 -0.087100916 -0.13768657 0.0
000010 5d f7 5d bd 07 37 9a bd 00 00 00 00 00 00 00 00
       -0.054190982 -0.07530027 0.0 0.0
000020 5d df 70 3a 00 00 00 00 67 f0 18 3c 22 7f 06 be
       0.0009188557 0.0 0.00933466 -0.13134435
000030 19 41 9a bd 79 87 60 3c 16 da f2 bc 3d 67 f2 b8
       -0.07531948 0.013704174 -0.029645007 -0.00011558689
000040 e2 b6 d4 bc 00 00 00 00 56 86 80 bd 00 00 00 00
       -0.025966112 0.0 -0.062756225 0.0
000050 c9 10 fc bd 99 c2 45 c0 e1 54 9a bd 15 a7 f9 3f
       -0.12307889 -3.0900023 -0.075357206 1.9504114
000060 f0 21 ec bc 3e 71 c5 bd df f5 d1 bd 58 d7 c9 bc
       -0.028824776 -0.0964074 -0.10251974 -0.024638817
000070 ea 90 63 bd 00 00 00 00 00 00 00 00 00 61 02 be
       -0.055558123 0.0 0.0 -0.12732315
000080 28 18 f2 bd dc b6 83 bd bc 0b 04 be 0d 2b a9 bd
       -0.11821014 -0.06431362 -0.12895101 -0.082601644
000090 7f 9c 78 bd a7 6a b7 bd f0 58 e3 be 72 47 dd bf
       -0.06069612 -0.08955889 -0.4440379 -1.7287428
0000a0 05 24 5c bd 00 00 00 00 57 b5 04 bd 1e 42 9e be
       -0.05374529 0.0 -0.0323995 -0.30909818
0000b0 70 73 e2 bd ae b5 bf bf 24 42 6e c0 2e 6c 83 be
       -0.11057174 -1.4977319 -3.722787 -0.25668472
0000c0 45 f9 d8 bc 9d d4 5c bd 00 00 00 00 97 d8 01 bf
       -0.026486048 -0.0539137 0.0 -0.50721115
0000d0 fa c9 fa 3f 17 6a a7 bd a9 9f db bd b0 21 ba 3c
       1.9592888 -0.08174532 -0.10723812 0.022721142
0000e0 a4 fc 39 3c 5c b8 d3 bf ee 06 1a be 13 45 c5 bd
       0.011351738 -1.6540637 -0.15041706 -0.096323155
0000f0 a1 11 d7 bd d6 f6 b1 3c c3 dc 53 3b 2e 0d b5 bd
       -0.10501409 0.021724146 0.003232763 -0.088404045

weight f4 [64, 3]
000000 5c 93 8c be 15 7e 6c 3d 38 27 28 be 33 26 e1 bc
       -0.27456176 0.05773743 -0.16421211 -0.027484035
000010 ad 97 da 3c a0 f0 a8 3b 07 75 02 3e db b9 5c be
       0.026683653 0.005155638 0.12739955 -0.21555273
000020 e7 9f ac be 8c 4d e2 bc b0 f6 83 bd 18 f6 68 bc
       -0.33715746 -0.027624868 -0.06443536 -0.01421883
000030 a5 9b 40 bd d2 38 63 be d6 db 9d be a6 0e 7e be
       -0.047023434 -0.22189644 -0.30831784 -0.24810275
000040 48 7d e3 bc 6c 5f 92 3d ae 68 89 be ec 9b 89 be
       -0.0277697 0.071471065 -0.26837677 -0.2687677
000050 4f 52 8c bc a3 e5 ea bd 68 cb f9 bd ff 2c 94 be
       -0.017129092 -0.11469581 -0.12197 -0.2894058
000060 30 7f 10 be fc 38 b3 be bc bb 34 bd 8c c9 44 be
       -0.14111018 -0.35004413 -0.04412435 -0.19217509
000070 f6 37 8b be ef 7b 7e bb a6 d6 85 be 76 0e 2a be
       -0.27191132 -0.0038831194 -0.26140326 -0.16607079
000080 09 91 7f be b2 94 ce 3d f3 30 93 be 1e cd ad be
       -0.2495767 0.10086955 -0.28748283 -0.33945554
000090 86 f3 6e be ae 15 78 be c0 eb cb 3c b0 52 82 bd
       -0.23335084 -0.2422702 0.024892688 -0.06363428
0000a0 77 82 0f be 95 71 f5 be 23 4c 20 be 3b 26 90 be
       -0.14014612 -0.4793822 -0.15654044 -0.28154168
0000b0 ac e3 25 3d 5f 28 50 bf 20 14 c2 bf 48 a7 25 3b
       0.040500328 -0.813116 -1.5162392 0.002527671
0000c0 d8 6d fb be 7f f4 31 3d e3 20 00 bf eb 5b 87 be
       -0.49107242 0.04344606 -0.5005018 -0.26437315
0000d0 7e b8 84 bc 22 7a 58 be e8 94 7c be 35 ad 8e 3d
       -0.016201254 -0.2114034 -0.24666178 0.0696663
0000e0 5d 4c 3d bd 70 37 0b bd 24 3b 8e be a2 23 c8 bd
       -0.046215404 -0.033988416 -0.27779496 -0.097724214
0000f0 d2 b9 50 be ca 05 9f 3d 8e 6f 43 3c 50 0a c3 3f
       -0.20383385 0.07764776 0.011928452 1.5237522
000100 23 4c a2 3f 00 2d a9 3f 64 33 b8 be cc 79 d4 be
       1.2679485 1.3216858 -0.35976708 -0.41499174
000110 9d 99 c1 3d b4 8c a6 3e f3 b6 84 3e 3f 87 80 3e
       0.094531275 0.32529223 0.2592083 0.25103185
000120 57 81 a4 3c 4f e8 ab be c3 3a c2 bd 78 f9 bc bd
       0.020081205 -0.33575675 -0.09483864 -0.0922727
000130 11 a9 9a 3d 2c e1 84 be 60 4d 9a be c9 c1 71 be
       0.07551778 -0.25953043 -0.30137157 -0.2360908
000140 e7 80 e8 3d d8 7f 95 3c f9 89 25 bd f6 20 b8 be
       0.11352711 0.018249437 -0.040414784 -0.35962647
000150 03 b0 9b be 86 64 03 bd b7 34 38 be a0 87 87 be
       -0.30407724 -0.03207829 -0.17988859 -0.2647066
000160 d8 c8 82 be 7e e8 b2 bd 3c 40 70 bd 0f 76 69 be
       -0.25543857 -0.087357506 -0.05865501 -0.22798942
000170 7e 7c e9 bd bd 97 8d be 95 5b 0c 3e 9e af a2 be
       -0.11400698 -0.2765483 0.13706811 -0.3177461
000180 5f 19 43 be c2 97 08 3e 59 aa b5 be f2 ca 82 bd
       -0.19052647 0.13339141 -0.35481527 -0.06386365
000190 b2 41 5f be c9 20 74 3d 6f 24 3e 3d 00 02 2d 3d
       -0.21802405 0.05960158 0.046421465 0.042238235
0001a0 91 33 6a bd 81 bb 4d 3c 8f 29 69 be 59 ac a8 be
       -0.057178084 0.012556911 -0.2276976 -0.3294399
0001b0 5c c6 20 3d 11 88 d1 bd 30 3c d1 be ba c6 69 3d
       0.03925167 -0.10231031 -0.40866232 0.057074286
0001c0 dc 55 08 be e2 f3 ac bc 2a f8 06 be c6 e5 8a 3d
       -0.13314003 -0.021112386 -0.13180605 0.06782107
0001d0 0b 60 73 3d 11 2b 65 3e 0e 33 09 3e 07 4a 4a 3e
       0.059417766 0.2237971 0.13398382 0.19754802
0001e0 0d 7c 5e 3d 3e 34 9c be 4f 15 1f be 1a 57 b1 bd
       0.054317523 -0.30508608 -0.15535472 -0.086591914
0001f0 00 f1 96 bd 0a cf f6 bb 3f c7 08 be 22 8e 06 3d
       -0.07370186 -0.007532005 -0.13357256 0.032850392
000200 bc 4c a7 be e0 c4 44 3b 27 5e 74 3c 85 77 bb 3d
       -0.3267573 0.0030024573 0.014915026 0.09153656
000210 9f cd 22 3c 4d f0 c2 3d 51 6a ea be d0 5b 1a 3e
       0.009936719 0.0951849 -0.45784238 0.15074086
000220 56 83 46 3e 12 05 30 3e f4 60 94 3f 1b 77 9a 3f
       0.19386038 0.17189434 1.1592088 1.2067598
000230 ec 0e 8f 3f 1d 02 ef 3d 55 6f c2 bd 6c 64 8a 3d
       1.1176429 0.11670325 -0.09493891 0.06757435
000240 b4 af da 3c 57 0b a8 be 1f d2 17 be be 6d 4a be
       0.02669511 -0.32821152 -0.14826249 -0.19768426
000250 4f d0 ed 3c 17 08 12 be 8c 7a 39 be b6 84 32 be
       0.029029993 -0.14260899 -0.18113154 -0.17433438
000260 ff c1 22 be e5 98 b2 3d 96 47 84 3c e7 cb 99 3d
       -0.15894316 0.087205686 0.016147416 0.075095944
000270 ae 58 65 bf b5 21 40 bf 2b f2 3a bf 2f de 20 be
       -0.8958844 -0.7505143 -0.7302577 -0.15709756
000280 49 76 c6 be 01 04 b6 3d cf 75 aa be 79 86 d7 3d
       -0.3876212 0.088874824 -0.33293006 0.105236955
000290 18 36 ba bd 56 b0 58 be d5 6f 83 bf db 81 74 be
       -0.09092349 -0.21161017 -1.0268503 -0.23877661
0002a0 8c b3 eb be f1 9e a1 be 5c 0e 60 be cf dd 6e 3e
       -0.4603542 -0.31566575 -0.21880478 0.23326801
0002b0 e0 12 30 3e 99 46 4b 3e 68 59 c3 be 43 0a 89 be
       0.171947 0.1985115 -0.3815415 -0.26765642
0002c0 30 ae 85 3d eb f1 91 bc 52 59 87 be f0 13 94 3d
       0.06527364 -0.01781555 -0.26435333 0.07230365
0002d0 97 7b 3f bc 32 46 40 3d 07 20 d3 bd 4a 53 b5 bd
       -0.011687181 0.046941943 -0.10308843 -0.08853777
0002e0 4a de 33 bf b3 36 1b bf e4 bb 48 bc d0 01 00 be
       -0.7026106 -0.6063034 -0.012251828 -0.12500691
0002f0 27 39 55 be ea c8 45 be f5 9b 74 be 6b 2e cf 3d
       -0.20822583 -0.19314924 -0.23887618 0.101162754

bias f4 [64]
000000 4e 98 77 bd f5 89 a1 bd 4d 0c b1 bc 33 10 b9 be
       -0.060447983 -0.07887641 -0.02161231 -0.36145172
000010 39 bb 9b bd 70 47 71 be 54 d8 14 c0 84 a8 b4 bd
       -0.07604069 -0.23562407 -2.3257036 -0.08821204
000020 c5 30 9e be 9e 87 a2 be 15 93 c9 bd 65 30 c3 bd
       -0.30896583 -0.31744093 -0.09842507 -0.09530715
000030 9e 05 aa bd ef 28 9f be 56 d8 d0 be d9 e1 8a be
       -0.08301853 -0.31085917 -0.4079005 -0.27125433
000040 1d ad 2f be 91 f5 b8 bd 5b 05 87 bc 27 31 a7 bd
       -0.17155881 -0.09031213 -0.016482046 -0.08163672
000050 43 fe 06 be b5 4f f2 bd 1e fd 74 bd 85 27 82 c0
       -0.1318293 -0.11831609 -0.059811704 -4.067324
000060 d2 b0 a2 bd 6c 21 b1 be 5d 8f 30 bd f5 17 e5 bd
       -0.07943882 -0.3459581 -0.043105472 -0.1118621
000070 99 34 33 be 5c b7 85 be f1 20 e3 be 41 34 6b bd
       -0.17500533 -0.26116455 -0.4436107 -0.05742288
000080 d4 15 97 be 7a e9 4d bd 47 c0 af bd 0a fb 75 bd
       -0.2950884 -0.05027149 -0.08581596 -0.060053863
000090 cf 8e 59 ba dc 7b 29 be b4 a6 b1 bd f8 0f fd bd
       -0.0008299173 -0.16551155 -0.08674374 -0.123565614
0000a0 46 5d d1 bd 31 68 43 bf 63 ef 4b be ad 32 7e be
       -0.102228686 -0.7633086 -0.19915538 -0.24824019
0000b0 01 28 94 be 5a a0 3a bd 84 0e 6a bd c6 74 d9 be
       -0.2893677 -0.04556308 -0.05714275 -0.42471904
0000c0 2c 80 d8 be f4 bb 68 bd 29 bb c4 be db 3a d9 bd
       -0.42285287 -0.05681987 -0.38424042 -0.10606929
0000d0 b1 d2 96 bd 77 bb 45 bc 1b ad 45 c0 ac 03 9d be
       -0.07364405 -0.012068621 -3.0886905 -0.30666864
0000e0 6f 46 8e be ea e8 82 bd a9 04 27 bf fb 5b 82 bd
       -0.27788112 -0.06392081 -0.65241486 -0.063652
0000f0 0f 4e 01 bc b8 f4 0b be e9 cf 8d bd 42 70 71 be
       -0.007892146 -0.13667572 -0.06924421 -0.23577979

weight f4 [64, 64]
000000 6c a2 d0 3c aa 1c 8e 3d 77 7a 3a 3e 22 78 27 be
       0.025468074 0.06939061 0.18210779 -0.16354421
000010 82 22 c4 bd 51 24 8f 3e 0d 14 51 be a5 72 be bd
       -0.09576894 0.27957395 -0.20417805 -0.092992105
000020 4f b5 8b bd 93 2a cb bd b4 42 17 bd e4 dd 47 3d
       -0.06821691 -0.0992023 -0.036928847 0.048795596
000030 6e 4c 9c 3d cb 01 ae 3c ab 5f 32 3e 7a 48 88 bc
       0.07631765 0.02124109 0.17419307 -0.016636122
000040 15 12 fe 3d b6 33 9a 3c 71 d2 a2 3e 04 b7 96 bd
       0.124057926 0.018823486 0.3180118 -0.07359126
000050 14 2a 84 be d5 af 14 be 25 8e 40 3d 61 1f c1 bd
       -0.25813353 -0.145202 0.04701056 -0.09429813
000060 88 bd 22 be 2c 96 5b 3e 71 9d 32 bd b9 27 8b bb
       -0.15892613 0.21444005 -0.04360718 -0.0042466787
000070 47 58 42 3c 67 43 d7 3d a0 44 a4 bd 12 b7 2d 3e
       0.011861867 0.10510903 -0.08020902 0.16964367
000080 0e 61 8f 3d f5 94 0d 3e 90 41 b8 be 95 b8 8a 3e
       0.070009336 0.13826354 -0.3598752 0.2709395
000090 99 f0 c1 3c 76 5b 2c 3d ba 99 f4 3d c1 44 23 be
       0.023674296 0.04207941 0.119433835 -0.15944196
0000a0 14 97 b2 bc 87 20 7b 3b 34 ef d5 3d 0b c4 2d be
       -0.021800555 0.0038318948 0.10446015 -0.16969316
0000b0 98 31 c5 3d 28 d2 4b be 2a df 1f bd 61 b8 53 3d
       0.096286 -0.19904387 -0.039031185 0.05168951
0000c0 09 c4 f8 3d 9b c4 09 3e 11 2d be bd 2c b1 cc bd
       0.12146766 0.13453905 -0.092859395 -0.0999473
0000d0 32 f7 45 bd 1d ad 39 be 7a 79 3f be e4 f2 6c be
       -0.048331447 -0.18132444 -0.18698683 -0.2313953
0000e0 69 86 ae 3d 85 77 cc bd a5 16 c2 3d c7 b5 bd 3d
       0.085217305 -0.09983734 0.09476975 0.09263187
0000f0 64 0f 51 bc 74 d2 f8 3d 37 d0 9d bd 07 c7 d7 3d
       -0.012760017 0.12149516 -0.077057295 0.10536008
000100 5d 8e 25 bd ae 21 81 be a9 c3 4f be 84 b3 57 3e
       -0.04041897 -0.25221008 -0.20289482 0.21064574
000110 cf 85 14 be 25 ab dd 3d 8e 62 2c be e4 7c c1 bd
       -0.14504169 0.10823659 -0.1683447 -0.09447649
000120 3f 72 02 be ca 42 cc 3d ac 0c 51 3e 73 74 a0 bc
       -0.12738894 0.099736765 0.2041499 -0.019586777
000130 b9 6b 13 3e a8 3a 3d 3e eb 8f 0f be 75 05 84 be
       0.14396562 0.18479407 -0.14019744 -0.25785413
000140 5b b2 78 3e 4f 3f ce 3d 48 d5 c9 3d c9 92 68 bd
       0.24286787 0.10070669 0.09855133 -0.05678061
000150 c2 82 64 be f5 b6 9d bd 46 3b eb 3d ef 93 b5 bd
       -0.22315505 -0.07700912 0.11485915 -0.08866107
000160 3a fe 9e 3d 96 96 35 be 7b ee c3 be 8f b8 f1 bd
       0.077633336 -0.17733225 -0.38267884 -0.1180278
000170 fb d2 78 bc ad 2a 02 be 1b 75 26 bc 5e f2 62 bd
       -0.01518702 -0.12711592 -0.010159756 -0.05540692
000180 f1 e7 2d 3d b6 3d 4f be 95 bf 2b be f0 9b 47 3c
       0.042457525 -0.20238385 -0.16772301 0.0121831745
000190 0b 2a 24 bd 59 e6 9c 3e 48 28 44 be 96 3d c9 be
       -0.040079158 0.3064449 -0.19155991 -0.393048
0001a0 db f5 0b be f6 5b 23 bd ed d1 fc 3d b7 b7 42 3d
       -0.13668005 -0.039882623 0.12344728 0.047538485
0001b0 c4 7d 36 bd c8 2c ba be cc 7b 6d be dd 8d 8e 3e
       -0.044553533 -0.3636229 -0.23191756 0.27842608
0001c0 cc 99 2e 3f d3 7b de 3d e2 c8 22 be 51 f0 5c be
       0.68203425 0.10863461 -0.15896943 -0.21576048
0001d0 5e 82 8f 3d 6a 2a 4a be 8e ca 57 be 24 07 cc bd
       0.070072874 -0.19742742 -0.21073362 -0.099622995
0001e0 2c d1 10 3e 9f 37 cb bd d9 d2 1f be 0c 2c 2e 3d
       0.14142293 -0.09922718 -0.15607776 0.042522475
0001f0 dd 64 64 be 50 43 8c be 3c f4 e1 3d 56 4d 9e bb
       -0.22304101 -0.27395105 0.11032912 -0.0048309965
000200 a2 53 9a 3c de 80 dd 3d 16 f6 5a be 84 37 15 bb
       0.018838707 0.10815595 -0.21382937 -0.0022768686
000210 7f 07 02 3d 2b e0 a9 3d 12 54 01 3e af 8b a5 3d
       0.03174543 0.0829471 0.12629727 0.08083283
000220 ae b2 ed 3d 64 ea 95 3d fd fe a9 bd 32 1e b2 3b
       0.11606346 0.07320097 -0.08300588 0.0054357285
000230 c3 24 d3 3d 9c 5c 5e 3c 96 78 e3 bd 50 f4 e1 bd
       0.10309746 0.0135718845 -0.11106984 -0.11032927
000240 63 c1 8b be 80 04 f0 bd 43 01 c1 3c aa e7 a4 bd
       -0.2729598 -0.11719608 0.023560172 -0.08051999
000250 be 19 6a be 73 c8 7e be 88 0c ca 3c 7b ec 65 be
       -0.22861382 -0.24881153 0.024664178 -0.22453491
000260 39 07 9b 3c 1f 17 58 be 41 6e 31 bd e9 d4 7d 3d
       0.018924342 -0.2110257 -0.043318037 0.061970625
000270 0b 1a b4 3d 9c 67 d9 bd df 83 09 3e 35 b6 57 be
       0.0879403 -0.10615465 0.13429211 -0.210656
000280 03 0a db bd 3d 9c 9a 3d ff 28 c9 3d 78 24 41 be
       -0.10695269 0.07549331 0.098222725 -0.18861568
000290 69 dd 50 be 0c 70 b1 3c 8c e3 d7 bd 9f 4d 92 be
       -0.20396961 0.021659873 -0.10541448 -0.28574845
0002a0 49 63 13 bb 29 3e 59 be f6 2a 1a be c0 4b 6d be
       -0.0022489598 -0.21215118 -0.15055451 -0.23173428
0002b0 0c 57 c8 3d bc 49 ea 3b 8b fe 39 3d 28 a0 2b 3d
       0.09782228 0.007149903 0.045408767 0.041900784
0002c0 f5 67 0c 3e 36 c2 bb 3d b6 5a b2 3d 4a 01 5a bd
       0.13711531 0.09167902 0.08708708 -0.053223886
0002d0 07 a3 35 be cb 63 25 3e d2 97 e4 bd 2b 8a b9 3c
       -0.17737971 0.16151349 -0.1116177 0.022648891
0002e0 7e 5e 02 bd 70 46 9e be 21 8d a1 3d 23 1d f9 3d
       -0.031828396 -0.30913115 0.07888246 0.121637605
0002f0 ec 4a 05 be fd 11 53 bd 9f 3b ab 3d fc 95 90 be
       -0.13016862 -0.051530827 0.08360981 -0.2823943
000300 64 5b 27 3d 6e 76 f0 3d 5a 09 74 be c9 9c 53 be
       0.04085864 0.11741339 -0.23831692 -0.20665278
000310 0d 01 7b 3e e8 ff 50 3b 4f 9f bd 3d 23 71 e1 bd
       0.2451212 0.0031890813 0.09258901 -0.11007907
000320 9a bc 38 be a8 00 9f 3c a3 b3 3c be 01 19 ce bd
       -0.18040696 0.019409493 -0.18427901 -0.10063363
000330 9d 77 f6 3d 37 0d 53 be 04 42 5e be ca 69 be be
       0.12034533 -0.2061051 -0.2170487 -0.37190086
000340 1c 13 9d bc 80 74 75 bd 3e c5 a6 be e6 42 46 3e
       -0.019174151 -0.059925556 -0.3257236 0.19361457
000350 31 19 76 3d be c5 ac bf 52 75 3e bd 3f 28 02 be
       0.06008262 -1.3497846 -0.046498604 -0.12710665
000360 3d 99 9e be af 9b 01 be 48 19 23 3e f2 be 1b bd
       -0.30976287 -0.12657045 0.15927613 -0.038023897
000370 5a b3 16 3d da 82 8c 3d 0d 22 a9 bd de 07 cf be
       0.036792137 0.068608955 -0.08258448 -0.4043569
000380 6e 63 8e be d0 4f 1b 3e d9 9b 70 3a 0d 0c ec bd
       -0.27810234 0.15167165 0.00091784965 -0.11525736
000390 f2 93 3e be cb c9 c9 3d 55 d8 9e be 65 0b 8f bf
       -0.18611124 0.09852942 -0.31024423 -1.1175352
0003a0 ae 58 e6 bd ad 22 8b bd 68 35 da 3d 67 c3 12 3e
       -0.11247383 -0.06793723 0.10654718 0.14332353
0003b0 b0 91 15 3e e8 9c 5e bf e9 13 ab be 9e 18 34 3d
       0.14606357 -0.8695817 -0.33413628 0.04396879
0003c0 66 c9 1b be d3 c1 11 be 1b 48 eb 3d 0f 5c 3e be
       -0.15213546 -0.14234094 0.114883624 -0.18589805
0003d0 ed 46 2e bf cc 6c 51 bd 04 8d 14 3e 4e d8 55 be
       -0.68076974 -0.051129147 0.14506918 -0.20883295
0003e0 f8 44 09 bf 67 a3 44 bf 92 52 0b 3c 6a 33 f1 3d
       -0.5362086 -0.7681183 0.008503573 0.117773846
0003f0 70 3e 59 3c 49 fc 89 3d 5f e6 33 3d 04 5a 44 bb
       0.013259515 0.06737573 0.04392087 -0.002996088

bias f4 [64]
000000 fe 09 bb 3d 20 49 59 be 5e 57 72 be 0e 9f 3e be
       0.09132765 -0.21219301 -0.2366614 -0.18615362
000010 55 fa 3e 3e 2c af 1d 3e b6 29 23 be ac e8 39 3e
       0.18650182 0.15398854 -0.1593388 0.18155164
000020 4e 2e 1d 3e e8 5c c8 bd 8c e6 95 3e b8 be 09 3e
       0.15349695 -0.097833455 0.29277456 0.1345166
000030 ea b9 c5 3d 2d eb 6d 3e a2 4a 47 3e 66 39 08 3e
       0.09654601 0.23234244 0.19462064 0.13303146
000040 27 a7 15 3e 29 58 9b bd 62 11 4f 3e 4c 09 71 be
       0.14614545 -0.075851746 0.20221475 -0.23538703
000050 e2 c8 27 be 51 28 0a be 21 0e 1a be 51 25 02 be
       -0.16385224 -0.13491942 -0.15044452 -0.12709548
000060 e2 14 06 3e 95 6e 3d 3e 05 09 10 be 26 3f 1e 3e
       0.13093904 0.18499215 -0.1406594 0.15453777
000070 71 80 7b be 4a 62 38 3e 93 d0 00 3e 5c 1f f1 bd
       -0.24560715 0.18006244 0.12579565 -0.117735595
000080 52 b2 d6 3b 45 a6 1e be b0 b0 49 be 6e 57 ac bd
       0.006552019 -0.15493114 -0.19696307 -0.084151134
000090 24 f4 26 3e 4b 04 9f bd 1a 45 0c be 71 11 6e 3e
       0.1630407 -0.07764491 -0.13698235 0.23248841
0000a0 5d b6 f4 3d e3 8d 40 3e 61 d3 3b 3e a1 36 1b be
       0.119488455 0.18804125 0.18342353 -0.15157558
0000b0 97 23 1a 3e fd fc 44 3e 30 51 62 be 75 bc 3c be
       0.15052639 0.19237132 -0.22101283 -0.18431266
0000c0 0f a3 06 be e9 de f5 3d 7b 3f a4 3d a3 9a 45 be
       -0.1314814 0.12005407 0.080199204 -0.1929727
0000d0 ca f6 64 bd 8c 17 3d 3e 37 5f cc 3d d6 79 1c 3e
       -0.05589942 0.18466014 0.09979098 0.15280852
0000e0 6f 8d d7 3d 4f 87 e6 3d 6c 3a e2 bd 5a 22 4f be
       0.10525023 0.11256277 -0.11046299 -0.20227948
0000f0 28 5f c9 3d 39 eb 65 3e 39 3f 50 be d6 19 15 be
       0.09832603 0.22453012 -0.20336618 -0.14560637

weight f4 [64, 64]
000000 eb 70 66 3e 12 1a 6c 3e 0a 52 54 be e8 20 97 3c
       0.22504012 0.2305682 -0.2073442 0.018448308
000010 dc e6 25 3e 6d 62 e6 3d 67 d2 2e c0 15 12 4a bd
       0.16201347 0.11249242 -2.731592 -0.04933365
000020 ad 59 89 3e f6 d0 f3 3d b3 01 f2 3d 55 4f 36 be
       0.2682623 0.119050905 0.1181673 -0.178037
000030 5c ec 25 be 88 a4 38 be cd 35 b9 3e 66 97 38 be
       -0.16203445 -0.18031514 0.3617386 -0.18026504
000040 33 0b 91 be f2 ff 54 3d 52 f6 18 be cf 5c 04 3d
       -0.28328857 0.0520019 -0.14937714 0.03231507
000050 24 73 03 bd 72 a8 3a be b0 8e fa bd 1f 7e 64 c0
       -0.03209223 -0.1822832 -0.12234247 -3.5701978
000060 0e 34 16 3d 9e c4 55 3e 11 c7 04 bf ba bc c7 bc
       0.036670737 0.20875785 -0.5186625 -0.024381984
000070 1a d9 11 3d 4e 00 bd be a2 2d 41 3e e5 8c 36 be
       0.035607435 -0.36914295 0.18865064 -0.17827184
000080 4a 28 50 3e 02 5b 86 3e 18 4d 62 3e b3 b7 fb 3c
       0.20327869 0.26241308 0.22099721 0.030727243
000090 08 0d 88 3e a1 25 a2 3e 6c ec a4 3e 8a 21 02 3e
       0.26572442 0.31669334 0.32211626 0.12708107
0000a0 f4 17 13 be 03 fd 3a be ad 8d 00 3e fd de a4 3e
       -0.14364606 -0.18260579 0.12554045 0.32201377
0000b0 fb ea 80 3e 7a 72 70 3e b1 27 e0 3d 44 77 e4 bd
       0.25179276 0.2348117 0.109450705 -0.111555606
0000c0 3a 1c b3 be ae 81 96 3d 2f 9a b6 3e e8 a0 61 bd
       -0.34982473 0.07348953 0.35664508 -0.055085093
0000d0 76 10 d4 3d 4e b5 9e bd 01 f9 57 bf a4 36 25 be
       0.10354702 -0.07749425 -0.84364325 -0.16134125
0000e0 e8 0c 45 be 37 34 73 3d c7 ba 92 be 6a 59 a1 bd
       -0.19243205 0.059375968 -0.28658125 -0.078783825
0000f0 b0 ef a9 be 9e 44 4b 3e 48 3f 85 be f4 37 03 3e
       -0.3319068 0.19850394 -0.26024842 0.12814313
000100 15 63 da 3d cb d9 d0 3d d0 e0 e0 bc 78 18 9f be
       0.1066343 0.10197791 -0.027450949 -0.31073356
000110 63 84 6c be dc 08 69 3d 2c 44 0e 40 15 28 2b 3e
       -0.23097377 0.056893215 2.222911 0.16714509
000120 86 52 47 be b9 d4 e8 bd 26 d5 59 3e 25 6a f5 3d
       -0.19465074 -0.113686986 0.21272716 0.11983136
000130 a8 1b 62 3d 4b 15 07 be 38 ca 55 3e bf f1 6c be
       0.055202156 -0.13191716 0.20877922 -0.23139094
000140 c4 89 17 be 85 c4 8e 3d 47 81 49 bd da 57 28 3e
       -0.14798647 0.06971077 -0.049195554 0.16439763
000150 c8 65 1b be 94 f1 5d 3d 25 24 80 be 57 5e 3e 40
       -0.15175545 0.054185465 -0.25027576 2.974508
000160 b4 c9 d5 3d d4 f0 a1 be 0a 0a 40 bd d1 fd 2b be
       0.104388624 -0.3162905 -0.046884574 -0.16796042
000170 d2 f8 38 bd c5 7b 71 be af cf ff bd 6f 7e 36 bf
       -0.04515917 -0.2358237 -0.124907844 -0.7128667
000180 da bf da 3c cf d4 ec bd f1 5a 38 3e 24 42 95 bd
       0.02670281 -0.115640275 0.18003441 -0.07288006
000190 5c 35 31 bd c3 d1 19 be 47 e7 65 bd 06 ae 27 3e
       -0.043263778 -0.15021424 -0.056128766 0.16374978
0001a0 ad 53 99 bd 28 4b 2d bc 9c 5f d5 3d e5 f0 39 be
       -0.07486663 -0.010577001 0.10418627 -0.181583
0001b0 b9 d8 81 be 06 29 fb bd 72 65 62 3c a5 3f 97 3e
       -0.2536066 -0.12263684 0.013818132 0.29540744
0001c0 26 b6 d9 be 34 79 77 be 31 75 67 be 57 a1 5b 3e
       -0.4252178 -0.24167329 -0.22603299 0.21448265
0001d0 31 93 0c be 9c 11 10 bd f4 92 4c 3f bd 28 06 be
       -0.13728024 -0.035173044 0.7991173 -0.13101478
0001e0 f5 44 c4 3e dc 55 da 3d fd 7c 67 3e 79 55 fc be
       0.3833386 0.106609076 0.22606273 -0.4928396
0001f0 02 95 1e 3f 88 16 03 be d0 c3 bd 3c 99 4e 9b be
       0.6194612 -0.12801564 0.02316466 -0.30333403
000200 60 da 55 bd d7 09 c8 3d 12 72 3e be 96 29 a4 bd
       -0.05221021 0.09767502 -0.18598202 -0.080157444
000210 29 ae b1 be bb 21 04 bd 3e 5a fe 3f cc 22 c6 bd
       -0.34703186 -0.03225873 1.987129 -0.09674606
000220 db 36 9a 3d 0b 5c 8d be 5a 7c 89 3d 4b 60 45 3e
       0.07529994 -0.27609286 0.06713171 0.19275014
000230 84 68 a0 bd 65 26 9f bc 76 e5 0e be 20 fd 36 be
       -0.07832435 -0.019427488 -0.1395472 -0.17869997
000240 95 cd 4d bd 27 16 46 3e 63 ba 22 3e 35 2b 61 be
       -0.050244886 0.19344388 0.15891413 -0.21989138
000250 3e 10 9a 3d 6f aa 88 3e 48 cd 36 bb f7 09 28 40
       0.07522629 0.2669253 -0.0027893353 2.6256082
000260 23 c7 0b be 82 12 84 be 10 3c 79 be 44 4d 7d be
       -0.13650183 -0.2579537 -0.24339318 -0.24736506
000270 3c 9d 8a 3e d3 01 e7 3d 43 9f 15 3e 6a a1 af bc
       0.27073085 0.11279645 0.14611535 -0.021439273
000280 cf b4 45 be a0 1c 87 be da 69 7d be e6 a3 95 bd
       -0.19307254 -0.26389027 -0.2474741 -0.07306652
000290 f8 9a f2 3d 73 b1 5d be c8 c3 55 bd 7f 61 81 3d
       0.11845964 -0.21649723 -0.052188665 0.06317424
0002a0 81 43 97 3d ca b7 3c 3e a5 8d e8 3d 08 a7 b8 bd
       0.07385922 0.18429485 0.113551416 -0.09016234
0002b0 7f 44 d7 bd ec 00 49 3d 5d 70 cd bd f8 b0 21 3f
       -0.105111115 0.049073145 -0.10031197 0.6316066
0002c0 57 46 86 be 48 a8 ad bd 5a 63 33 be 41 84 1a 3c
       -0.2622554 -0.08479363 -0.17518368 0.009430946
0002d0 cd 97 c0 3c 2c e4 0e bd d5 54 69 3f 03 18 70 3c
       0.023509884 -0.03488557 0.9114507 0.014654162
0002e0 31 cd 00 be f2 02 75 be 7b e6 4c 3e 8c d2 b0 3d
       -0.12578274 -0.23926905 0.20009796 0.08633909
0002f0 41 c3 c8 3e bf 6a 5a 3e e8 15 90 bd 10 1d 3a 3c
       0.39211467 0.21329783 -0.07035428 0.011359468
000300 bc 4c 1d be a6 ed 5d 3d 4d 3e 9e bd 9b 10 3a be
       -0.15361303 0.054181717 -0.07726727 -0.18170397
000310 60 8c 5c 3d fc bb 6f be 63 c9 0a 40 29 9b 35 bd
       0.05384481 -0.23411554 2.1685417 -0.044337425
000320 d3 a9 fe be d7 b4 81 3e 81 ad c5 3b 4a 00 2d 3d
       -0.4973894 0.25333282 0.006032646 0.042236604
000330 f4 a4 97 be 01 42 05 3f e7 b2 1a 3e 9d 21 b3 3d
       -0.29618037 0.5205384 0.15107308 0.087466456
000340 e2 3a 47 bd 6c 6b ef 3d 0a 83 f6 3c ed 11 00 3d
       -0.04864014 0.11690411 0.030091781 0.031267095
000350 4d 2b cc bd 3f e0 71 bd 36 aa 9c be bf 58 48 40
       -0.099691965 -0.05905175 -0.3059861 3.1304166
000360 ed 4e 6b be 3a 11 c1 be 53 b2 90 3d f0 f2 52 be
       -0.22979327 -0.37708455 0.07065263 -0.20600486
000370 da 3c 65 3c 71 d1 16 be bc 88 a4 bd 0c b1 57 be
       0.013991559 -0.14728333 -0.080338925 -0.21063632
000380 cb 7f 4f 3d d6 11 e9 bd 24 03 58 3e db 46 58 be
       0.050658982 -0.11380355 0.21094948 -0.21120779
000390 39 cf 18 3c 6d ca ab be b3 cc 1c 3e 7c a0 2f be
       0.0093267495 -0.33552876 0.15312462 -0.17151064
0003a0 ce f6 39 3d d5 e5 ef bd f5 37 54 be c9 34 0f bf
       0.045401387 -0.11713759 -0.20724471 -0.5593992
0003b0 37 08 3c bf 3f 69 8b 3d fc 45 af 3d cb a4 0e 3f
       -0.73450035 0.068071835 0.0855827 0.55720204
0003c0 03 c3 4b be 46 cb ef bd 27 b0 29 be c9 31 2d 3d
       -0.1989861 -0.11708693 -0.16571103 0.042283807
0003d0 e3 09 1c 3e 61 ae b9 3d d0 05 94 3f ea e9 18 bd
       0.15238146 0.09066463 1.1564274 -0.037332453
0003e0 86 f8 3c 3e 07 9e 4c 3c c0 f8 c2 be 28 bc cc bd
       0.18454179 0.0124888485 -0.38080406 -0.099968255
0003f0 d3 78 0c 3f 69 de 32 be b8 97 33 be 44 ef 79 be
       0.54871863 -0.17467655 -0.17538345 -0.24407679

weight f4 [2, 64]
000000 eb 3e 33 be ba 5d c7 3d 9f 26 6a 3e 7b eb 67 3e
       -0.1750447 0.09734674 0.22866295 0.22648422
000010 87 b5 7c be 95 68 53 be 59 05 f3 3d c5 34 40 be
       -0.24678622 -0.20645364 0.11866254 -0.1877013
000020 a7 3d b3 bd cc ce ae bc b9 ae 55 be d0 c6 42 be
       -0.087519936 -0.021338843 -0.20867433 -0.19021153
000030 5f de 76 3d df 54 54 be b1 8c 53 be ec 4b 4d be
       0.060270663 -0.20735501 -0.20659138 -0.20048493
000040 c7 63 d7 bd 1a 7d 66 3e 0f d2 b8 bd 49 a2 a9 3c
       -0.10517078 0.2250866 -0.090244405 0.020707266
000050 54 91 e2 3c c1 2e 19 3e ee ae ef 3d cf a3 d3 3d
       0.027657188 0.14959241 0.11703287 0.103339784
000060 46 fc 38 be 7e 32 3a be 12 a3 48 3e fd 67 41 bd
       -0.18064985 -0.18183324 0.19593456 -0.04721831
000070 7d be 5c 3e 80 50 01 be f7 d0 f2 ba d9 34 0a 3e
       0.2155704 -0.12628365 -0.0018525411 0.13496722
000080 e3 07 27 be e4 e8 b5 3d 50 c4 6d 3e 9c 84 97 3d
       -0.16311602 0.08882311 0.23219419 0.0739834
000090 b1 c5 59 be da 78 57 3e 9f f2 2f 3e 2e f2 1f be
       -0.2126682 0.21042195 0.17182396 -0.15619728
0000a0 09 b6 f0 bd 30 f0 c1 bd 12 97 1c be d6 55 bb 3d
       -0.117534705 -0.0946964 -0.15292004 0.09147231
0000b0 be 90 f6 bc a6 39 eb bd 61 70 49 3e 52 d3 20 3e
       -0.030098315 -0.11485605 0.19671775 0.15705612
0000c0 e9 6a 2f 3e 1a 30 94 bd d6 a6 fc bd 12 6f 0a 3d
       0.17130627 -0.07235737 -0.12336509 0.03379733
0000d0 f3 e0 ed 3d 6e ab 2e be 35 ae e9 bd c9 30 32 bd
       0.11615171 -0.17057583 -0.114101805 -0.043503556
0000e0 bb e3 7a be 22 e8 e9 bd 84 2b 80 3d fe 5a 8c 3e
       -0.24500935 -0.11421229 0.062583 0.27413172
0000f0 62 55 54 be 95 6f 8e be 92 0b 6d 3e 40 d8 21 3e
       -0.20735696 -0.27819505 0.23148945 0.15805149
000100 77 0e 95 3d 41 37 2c be bb e4 40 be 1b de 49 be
       0.072781496 -0.16817953 -0.18837254 -0.19713633
000110 4c 22 00 3e dd dd 4a 3e d3 5b 1f be 90 75 92 3d
       0.12513083 0.19811197 -0.15562372 0.071513295
000120 23 0e a1 3e d3 21 6a bd a4 cd 8c 3e a6 e4 ab 3c
       0.31456098 -0.057161164 0.2750064 0.020983052
000130 ff f7 4b 3d 84 81 b7 3d a5 9f da 3d de 0e 23 3e
       0.049797054 0.0896025 0.10674981 0.1592364
000140 be 5e 8c 3e 8e 5a ee bd c8 ad 39 3e 96 ff 56 be
       0.27416033 -0.11638366 0.18132699 -0.20995936
000150 5e ec 0f be 2e b3 a3 bd ab 60 00 be c8 b3 5e bd
       -0.1405501 -0.0799316 -0.12536876 -0.05437067
000160 6e 45 93 3d 34 04 46 3e 53 3e b6 bd bc 22 81 3e
       0.07190977 0.19337541 -0.08898606 0.25221813
000170 b3 e8 51 be f1 95 30 3d 3b 79 ab 3d 13 e0 fd bd
       -0.20498924 0.043111745 0.08372732 -0.123962544
000180 4c e8 37 3e fc 99 f2 3a 1d 28 24 be 15 0e 00 be
       0.17959708 0.0018509026 -0.16030927 -0.12505372
000190 c5 b6 83 3d c4 b5 1c be cd b9 d4 bd 8b 5e 13 3e
       0.06431345 -0.15303713 -0.10387001 0.14391534
0001a0 5b 01 28 3e 22 19 f0 3d db 45 82 3e df 09 0c 3d
       0.16406767 0.11723544 0.2544392 0.0341891
0001b0 b4 23 87 3d 04 dd 16 3e 72 01 61 be d3 a6 1f be
       0.06598607 0.14732748 -0.21973208 -0.15590982
0001c0 5e 87 5d be 9d 10 94 3e 93 5b 59 3d c0 7a 44 bd
       -0.2163367 0.28918925 0.053065848 -0.047968626
0001d0 bb 70 85 be c5 49 ad 3d 6c 4f 06 3e 20 67 62 3c
       -0.2606257 0.08461336 0.13116235 0.013818532
0001e0 55 c9 9b 3e 4a 59 14 3e b7 d2 34 bd 30 1d 4a be
       0.30427042 0.14487186 -0.044146266 -0.19737697
0001f0 3b 6f 90 3d 2f 2e 51 3e e6 b0 e8 bd 48 fd 6d bd
       0.070524655 0.20427774 -0.11361866 -0.058102876

bias f4 [2]
000000 94 24 58 3e 61 47 9c be
       0.21107703 -0.30523208
